tflite_chat/model (2).tflite (tflite, 768143 bytes, 5 tensors)

embedding/embeddings f4 [10003, 16]
0	0x3e4e510f	0.20148109
1	0xbd010cb1	-0.031506244
2	0xbda7dc70	-0.08196342
3	0x3df19df5	0.11797706
4	0x3d2e2f5f	0.042525645
5	0xbd8eaae2	-0.06966187
6	0x3cd4cd01	0.02597666
7	0x3dd2b14f	0.10287725
8	0x3ca7c9fb	0.020482054
9	0xbda52561	-0.0806377
10	0xbc2c2726	-0.010507381
11	0xbcb40ed1	-0.021979721
12	0x3ba90fdc	0.0051593613
13	0x3e07ab9b	0.13249056
14	0xbd4bd57e	-0.04976415
15	0xbd999317	-0.07498758
16	0x3df8efc7	0.12155109
17	0x3db2cdf0	0.08730686
18	0xbd91ffae	-0.07128845
19	0x3ea8ddec	0.32981813
20	0x3e9d4a43	0.3072072
21	0x3e256156	0.16150412
22	0x3d81698d	0.0631896
23	0xbb86f34f	-0.00411836
24	0x3d9d23b5	0.07672826
25	0x3d4845bf	0.04889464
26	0xbd7d22d2	-0.061800785
27	0x3dd4114d	0.10354862
28	0x3e769a49	0.24082293
29	0x3dcf20a8	0.101136506
30	0xbe1dd1ce	-0.15412065
31	0xbcc279d6	-0.023739737
32	0xbf0bc828	-0.5460229
33	0x3eddf732	0.43352658
34	0xbf0a5860	-0.540411
35	0xbe3c5cd2	-0.18394783
36	0xbe214fa3	-0.15753035
37	0x3f812370	1.008894
38	0x3e66c864	0.2253738
39	0x3e9c8560	0.30570507
40	0x3e9ac04f	0.30224845
41	0x3deeabdd	0.11653874
42	0x3f451aa7	0.76993793
43	0xbeedfbe2	-0.46481234
44	0xbee1405a	-0.4399441
45	0x3e905b7e	0.28194803
46	0xbea5064c	-0.32231367
47	0x3e234b2b	0.15946643
48	0xbf072306	-0.52787817
49	0x3f357673	0.70883864
50	0xbf56608a	-0.83741057
51	0xbee2913e	-0.44251436
52	0xbf130886	-0.5743488
53	0x3e823df0	0.2543788
54	0xbf1c5f17	-0.61082596
55	0x3f262336	0.6489748
56	0x3e6df88f	0.23239349
57	0x3ee597dd	0.44842425
58	0x3f874c88	1.057023
59	0xbe884a16	-0.26619023
60	0xbf3580cc	-0.70899653
61	0x3f50a932	0.8150817
62	0xbf7cc6e5	-0.9874099
63	0x3e2769fa	0.1634902
64	0xbf0d196a	-0.55116904
65	0x3f924f7a	1.1430504
66	0xbf7dc346	-0.9912609
67	0xbe8c4c50	-0.27401972
68	0xbea283ec	-0.31741273
69	0x3e6a0b29	0.2285582
70	0x3e878e30	0.26475668
71	0x3ec3b392	0.3822294
72	0x3f1998da	0.5999886
73	0x3dc8b8b5	0.09800855
74	0x3f5cf2a7	0.8630776
75	0xbf9d723a	-1.2300484
76	0xbecf9618	-0.405442
77	0x3e6923b3	0.22767524
78	0xbdb731c0	-0.08945036
79	0xbe80cbed	-0.25155583
80	0xbf1fd30e	-0.6243142
81	0x3fb59c9b	1.4188417
82	0xbf9a89dd	-1.2073323
83	0xbf813759	-1.0095016
84	0xbf60fa03	-0.8788149
85	0xbe82e35b	-0.25564083
86	0xbe856d22	-0.26059824
87	0x3f01bb7b	0.506767
88	0x3f819317	1.0123013
89	0xbdf4e325	-0.11957387
90	0x3ff53bfa	1.9158928
91	0xbfeedab5	-1.8660494
92	0xbf6fb502	-0.9363557
93	0x3f6b47eb	0.91906613
94	0xbf5898fb	-0.8460843
95	0xbf1a8039	-0.603519
96	0x3e589ad2	0.2115281
97	0x3fb4b8e4	1.4118924
98	0xbff7449b	-1.9317812
99	0xbfa6892b	-1.301061
100	0xbfb8a667	-1.4425782
101	0xbf86e678	-1.0539083
102	0x3ec878ac	0.39154565
103	0x3f7f7689	0.99790245
104	0x3fa11a30	1.2586117
105	0x3f57f19f	0.8435306
106	0x4003c0b0	2.0586357
107	0xc010f2d2	-2.2648206
108	0xbfc49f19	-1.5361053
109	0x3f5b89d4	0.85757184
110	0xbef6eb66	-0.4822647
111	0xbfb74ab6	-1.4319675
112	0x3e69a94a	0.22818485
113	0x3e2c0fe5	0.16802938
114	0xbf4683f9	-0.77545124
115	0x3e9a802e	0.30175918
116	0x3d501f17	0.0508109
117	0xbe1d53c6	-0.15363988
118	0x3eaf02a8	0.34181714
119	0x3effd862	0.49969774
120	0x3e0f9a0d	0.1402361
121	0xbe830d02	-0.25595862
122	0x3f114dab	0.56759137
123	0xbf00a870	-0.50257015
124	0x3e4e2df6	0.2013472
125	0x3ec1b01e	0.3782968
126	0x3eb95dfe	0.36204523
127	0x3ddaab1f	0.1067717
128	0xbeedf1b7	-0.46473476
129	0x3fa2172b	1.266332
130	0xbfe363ca	-1.7764828
131	0xbf804631	-1.0021421
132	0xbfb09e09	-1.3798229
133	0xbf8d9e08	-1.1063852
134	0xbe15ba37	-0.14621817
135	0x3fd715e2	1.6803553
136	0x3f8853a1	1.0650522
137	0x3f08c7b9	0.5342975
138	0x401822bb	2.3771198
139	0xc00651af	-2.0987356
140	0xbfb0eba9	-1.3821918
141	0x3fae9fc3	1.3642505
142	0xbec8eb50	-0.3924203
143	0xbfb7f145	-1.4370505
144	0x3d466dcc	0.048444554
145	0x3f98a6c2	1.192589
146	0xc01866c8	-2.3812733
147	0xbff1e85a	-1.8899033
148	0xc004d83d	-2.0756981
149	0xbfff4df2	-1.9945662
150	0x3f29fa24	0.6639731
151	0x40043ea2	2.0663228
152	0x3fb8191a	1.438266
153	0x3fc9854c	1.5743804
154	0x402be8be	2.6860805
155	0xc0238afd	-2.5553582
156	0xc0085736	-2.130323
157	0x3fc15788	1.5104837
158	0xbe40c44b	-0.1882488
159	0xbff965cb	-1.948419
160	0x3dd2f51e	0.10300659
161	0x3fc06587	1.5030984
162	0xbf098174	-0.53713155
163	0xbf8e6837	-1.1125554
164	0xbf9b703f	-1.214363
165	0xbf5c18ee	-0.8597554
166	0x3d95035b	0.07276031
167	0x3ea53d3c	0.3227328
168	0x3f4b9df0	0.7953787
169	0x3cded1d7	0.027199669
170	0x3fcd5fe5	1.604489
171	0xc01cb6d5	-2.4486592
172	0xbfb646fd	-1.4240414
173	0x3f0bc8df	0.5460338
174	0xbf07f759	-0.531118
175	0xbfab1928	-1.3367052
176	0xbec68289	-0.38771465
177	0x3f4dc802	0.8038331
178	0xbf70f73a	-0.9412724
179	0xbdb78f9d	-0.08962939
180	0xbe9f0ef6	-0.31066102
181	0xbf350d63	-0.7072355
182	0x3d04e97f	0.03244924
183	0x3eb2c93b	0.34919152
184	0x3f28fd1a	0.660112
185	0xbf547030	-0.82983685
186	0x3fe24a7f	1.7678984
187	0xbf80833f	-1.0040053
188	0xbefde279	-0.49586847
189	0x3f555ddd	0.8334635
190	0xbdce42f5	-0.10071365
191	0xbe944f66	-0.28966826
192	0xbfa2ce27	-1.2719163
193	0x3fc7b05c	1.5600696
194	0xbf25fe4b	-0.64841145
195	0xbf363ae1	-0.7118359
196	0xbf917b3b	-1.1365732
197	0xbf9cc02e	-1.2246149
198	0xbee1f0f5	-0.44129148
199	0xbd0a38d0	-0.033745587
200	0x3f7657e2	0.9622785
201	0xbf7cb441	-0.98712546
202	0x40113309	2.26874
203	0xbfd2f9e8	-1.6482515
204	0xbfa0c483	-1.2559971
205	0x3f4a8c93	0.7912075
206	0xbf700b4a	-0.93767226
207	0xbe4bfff7	-0.19921862
208	0x3f06f86c	0.5272281
209	0x3ed8cce4	0.4234382
210	0xbf8d758a	-1.1051495
211	0x3e84db56	0.2594859
212	0x3dbde4a7	0.092721276
213	0xbd2c1561	-0.042012576
214	0x3eb7f34a	0.35927802
215	0x3d98046e	0.0742272
216	0x3ecd205b	0.40063748
217	0x3e5dec14	0.21672088
218	0x3f397b0e	0.7245339
219	0xbf7b6ccf	-0.98212904
220	0x3d74ef39	0.059798453
221	0x3d6c9f1e	0.057768933
222	0x3e024c58	0.12724435
223	0xbe131623	-0.14363913
224	0x3dbb13fa	0.091346696
225	0x3e7083c9	0.23487772
226	0xbf91a76b	-1.1379217
227	0xbe41ac3e	-0.18913361
228	0xbf4c482f	-0.79797643
229	0xbfa233b3	-1.2672027
230	0xbeb389a9	-0.35065964
231	0x3ea8e1c4	0.32984746
232	0x3edc8d38	0.4307649
233	0xbee6cd67	-0.45078585
234	0x3fd24c71	1.6429578
235	0xbf87a07e	-1.0595853
236	0xbf47c22d	-0.78030664
237	0x3f7e0201	0.9922181
238	0xbed06d11	-0.4070821
239	0xbd53950a	-0.051655807
240	0xbf1e9014	-0.61938596
241	0x3f3969da	0.7242714
242	0xbf821e50	-1.0165501
243	0xbe949cf5	-0.29026
244	0x3ef60454	0.48050177
245	0x3f3671f8	0.7126765
246	0xbcc08e11	-0.023505243
247	0x3e0efe29	0.13964142
248	0x3c7a9117	0.015293381
249	0x3ccc93b5	0.024972776
250	0x3f5b8889	0.8575521
251	0xbeae7cce	-0.34079593
252	0x3eec5157	0.46155807
253	0x3ebd0e4b	0.36924967
254	0xbe3f7652	-0.1869748
255	0x3e894aee	0.2681498

dense_1/bias f4 [5]
0	0xbe812b7f	-0.25228497
1	0xbf198d9f	-0.5998172
2	0xbe9d0cc5	-0.30673805
3	0x3f22f905	0.63661224
4	0xbe5e9952	-0.21738175

dense/bias f4 [16]
0	0xbc58c5ad	-0.013230723
1	0x3e1a3b72	0.15061739
2	0xbd8c8d46	-0.06862883
3	0x3d86189a	0.06547661
4	0xbb6a0e0c	-0.003571394
5	0xbdd36f25	-0.103239335
6	0xbc452213	-0.01203205
7	0xbdda2e53	-0.10653367
8	0xbd8c0dc7	-0.06838565
9	0xbd309e43	-0.04311968
10	0xbd821335	-0.0635132
11	0x3d28b079	0.041183922
12	0x3e385be2	0.180038
13	0xbcdf23ad	-0.027238691
14	0xbcb0f0af	-0.021599142
15	0xbcf96f46	-0.030448567

sequential/dense/MatMul f4 [16, 16]
0	0xc005b00e	-2.0888705
1	0xbfc964ef	-1.5733927
2	0xbe89ea38	-0.26936507
3	0x404a8448	3.1643238
4	0x3f1d5cc1	0.61469656
5	0xbf6f948b	-0.93586034
6	0xbfed0956	-1.8518474
7	0x3f38959b	0.7210328
8	0xc07d70b5	-3.960004
9	0xbfbe080f	-1.4846209
10	0x401a1f15	2.408147
11	0x409a6de2	4.8259134
12	0x3ec2de1d	0.38060084
13	0x3f675ce6	0.90376127
14	0xc08079a3	-4.014848
15	0x405c7bf0	3.4450645
16	0x3f38f38e	0.72246635
17	0x401eed4c	2.4832335
18	0x3d7a8c36	0.06116887
19	0xbff0e47c	-1.8819728
20	0x3ef7c7b9	0.48394564
21	0x400859b5	2.1304753
22	0x3ef7fa3a	0.48433095
23	0xbef3d4fe	-0.47623438
24	0x40379e93	2.8690536
25	0x3fa9757a	1.3238976
26	0xc041fe0a	-3.0311303
27	0xc0a44f2f	-5.134666
28	0x3f44a478	0.7681346
29	0xbf8a73be	-1.0816572
30	0x4009e6aa	2.1547036
31	0xc05e4442	-3.4729161
32	0x3fc0cf3b	1.5063242
33	0xc05fefa8	-3.4990025
34	0x4049b83a	3.1518693
35	0xbfcabc8f	-1.5838794
36	0xc0765b8c	-3.8493376
37	0xc091cb22	-4.5560465
38	0x402bc36c	2.6838026
39	0xbeaa2a20	-0.33235264
40	0xc082a019	-4.082043
41	0xc0aeb8d9	-5.4600644
42	0xbe507ff3	-0.20361309
43	0xbfc1e32b	-1.5147451
44	0xc08e9962	-4.4562235
45	0xbf1c25f2	-0.609954
46	0x3fa9c941	1.3264543
47	0x400b3e10	2.175663
48	0xbf29723e	-0.66189945
49	0x3ffdebb4	1.9837556
50	0xc05dbc7f	-3.46463
51	0xbf925090	-1.1430836
52	0xbe7b971f	-0.24569367
53	0x3fc33d8e	1.525316
54	0x3ebf2618	0.3733375
55	0x3fb00a42	1.375313
56	0x4044b360	3.0734482
57	0x40534a38	3.301405
58	0x3fd26398	1.6436644
59	0x40892293	4.2854705
60	0x3c0a57e7	0.008443809
61	0x3fd5fcaa	1.6717732
62	0x40237abd	2.5543664
63	0xbfe57223	-1.7925457
64	0x40243461	2.565697
65	0xbf0c733d	-0.5486334
66	0x4005547f	2.0832822
67	0xbfc7b510	-1.5602131
68	0xbf942c51	-1.1576024
69	0xbf35d750	-0.71031666
70	0x40126697	2.2875116
71	0xbecd0cc3	-0.400488
72	0x3eebd806	0.4606325
73	0xbc52cb54	-0.01286586
74	0xc0718519	-3.7737486
75	0xc087c75c	-4.243086
76	0xbe95d47f	-0.29263684
77	0xbfcc2f83	-1.5952
78	0x40a37cc8	5.108982
79	0xc03c4f41	-2.9423373
80	0x3e0876a0	0.13326502
81	0x3e82f437	0.25576946
82	0xbeb4c8c1	-0.35309413
83	0xbe9af50a	-0.30265075
84	0x3da99c9b	0.08281823
85	0x3e9b49d5	0.30329767
86	0x3eb769f7	0.35823032
87	0xbe9feabc	-0.31233776
88	0xbe8539cc	-0.26020658
89	0x3e942f3a	0.2894228
90	0xbe6067ae	-0.2191455
91	0xbd8168d5	-0.06318823
92	0xbd9b8e21	-0.07595468
93	0x3db8c036	0.09021036
94	0x3dc3120b	0.09524926
95	0x3d9e5ab1	0.07732142
96	0x3df3930d	0.11893282
97	0xbf9e7d52	-1.2381995
98	0xbe827114	-0.25476897
99	0x3f051c8a	0.5199667
100	0xbe557cc0	-0.2084837
101	0x3e07c709	0.1325952
102	0x3e90b6fc	0.28264606
103	0xbeb4af57	-0.35290024
104	0xbefc5bc5	-0.49288765
105	0xbe1afdbb	-0.15135853
106	0x3bceff76	0.0063170744
107	0x3f2896a3	0.65854853
108	0x3e5356cb	0.20638578
109	0x3dfecd37	0.124414854
110	0xbe9aeccf	-0.30258796
111	0x3c9f9235	0.019478897
112	0xbf0089ed	-0.5021046
113	0xc048fbb3	-3.1403625
114	0xc02bf4f5	-2.686826
115	0xc0028e94	-2.0399523
116	0xc059621d	-3.3966134
117	0xc03f5aa3	-2.989907
118	0x3f1d026f	0.6133184
119	0x3fabdefd	1.3427426
120	0xbf84262b	-1.0324148
121	0xbf340aa3	-0.7032873
122	0x401981fc	2.3985586
123	0x40be4cc9	5.946873
124	0xc0415010	-3.0205116
125	0x40192289	2.3927329
126	0x3fe55491	1.7916433
127	0x3f7c5540	0.9856758
128	0x3e105642	0.14095405
129	0xbe91a9a6	-0.28449744
130	0xbe50ee52	-0.20403412
131	0xbe8f4f9e	-0.2799043
132	0xbde5fa10	-0.11229336
133	0xbeeb67f9	-0.45977762
134	0xbda7aedc	-0.08187649
135	0xbe9394cc	-0.2882446
136	0xbf02682d	-0.5094021
137	0xbf115c20	-0.56781197
138	0xbe5e2c93	-0.21696691
139	0x3e3f90ae	0.18707535
140	0xbfcfd041	-1.6235429
141	0x3ef184da	0.4717167
142	0xbf22e04a	-0.6362349
143	0x3df71db0	0.12066209
144	0x3e88cf6c	0.2672075
145	0x3e64b40a	0.22334304
146	0x3cfd3e75	0.03091357
147	0xbebd1a1c	-0.36933982
148	0x3e87f9e0	0.26557827
149	0x3dc76dc1	0.09737731
150	0x3e06d610	0.13167596
151	0xbe028e6e	-0.12749645
152	0x3b53c899	0.003231561
153	0xbe38399a	-0.17990723
154	0x3cb6e578	0.022326216
155	0xbd990eeb	-0.074735485
156	0xbe2f4819	-0.17117347
157	0x3e9c4212	0.30519158
158	0x3e844892	0.25836617
159	0x3ecdc5eb	0.40190062
160	0x3e50e509	0.2039987
161	0xbe850034	-0.25976717
162	0xbec78a51	-0.38972715
163	0x3e9ef17e	0.3104362
164	0x3d2ced37	0.042218413
165	0x3e08c0ef	0.13354848
166	0x3f0af4de	0.5427989
167	0xbf2256bf	-0.63413614
168	0xbc4f5b3d	-0.01265603
169	0x3da57a66	0.08079986
170	0xbed6b729	-0.41936615
171	0x3e902ef7	0.2816083
172	0xbdf2dd02	-0.1185856
173	0x3dd73105	0.105073966
174	0x3e4a274a	0.1974155
175	0x3ee8fd4a	0.45505744
176	0xbfba3aef	-1.4549235
177	0x3ed16785	0.40899292
178	0xc0505dee	-3.255733
179	0xbff476e6	-1.9098785
180	0xc01d24df	-2.4553754
181	0xbf3bae22	-0.7331258
182	0xbedd9136	-0.4327485
183	0x3fa67f60	1.3007622
184	0x3e994d6d	0.29941884
185	0x3f64230b	0.8911597
186	0x402785ef	2.6175497
187	0x404773a7	3.1164339
188	0xc01732a5	-2.362466
189	0x3fe5c6c5	1.7951285
190	0xbf95dff9	-1.1708976
191	0xbecb2862	-0.39679247
192	0xc00b12ab	-2.1730144
193	0x401fcfed	2.4970658
194	0xbf7de430	-0.9917631
195	0x404cc8a3	3.199746
196	0x40b898ce	5.768653
197	0x40a7528e	5.2288275
198	0xbf74a6ad	-0.9556683
199	0xbcb8f068	-0.022575572
200	0x406915a6	3.6419463
201	0x4041efc2	3.0302587
202	0xbf969e60	-1.1767082
203	0x3f61f3c0	0.8826256
204	0x40d95303	6.7913833
205	0xbeb08e2a	-0.34483463
206	0xbf8e3e5d	-1.1112782
207	0xbf545bc6	-0.82952535
208	0xbfac0130	-1.3437862
209	0x4002ed09	2.0457175
210	0x3f85e53d	1.0460583
211	0x40338501	2.804993
212	0x4051d9db	3.2789218
213	0x3f75edd6	0.96066034
214	0xbfae4547	-1.3614892
215	0xbf3042b1	-0.68851763
216	0xbfd5173e	-1.6647718
217	0xbfc9d509	-1.5768138
218	0x3f8b79a8	1.0896502
219	0xc051dca8	-3.2790928
220	0x40151d16	2.3299003
221	0xbf4d32e6	-0.8015579
222	0xc085a7e4	-4.1767445
223	0x400c9872	2.1968045
224	0x3e110a0f	0.14163993
225	0x3f8d0e2f	1.1019953
226	0x3eca7884	0.3954507
227	0xbff33904	-1.9001775
228	0xc00a2403	-2.158448
229	0xbfeca8c8	-1.8489008
230	0x3e391af4	0.18076688
231	0xbf236c97	-0.6383757
232	0xbf8ed7b9	-1.1159583
233	0xc0588bf9	-3.3835433
234	0x3f87339a	1.0562623
235	0xc04b82ae	-3.179851
236	0xc0493371	-3.1437647
237	0xbeeefb37	-0.46676037
238	0xbfc56ad3	-1.5423225
239	0x3e188a9d	0.14896627
240	0x3d7a3b05	0.06109144
241	0x401bb30b	2.432803
242	0x3e54c63c	0.20778745
243	0xbeab7bd2	-0.33492905
244	0xbfcebae9	-1.615079
245	0xbf44500a	-0.7668463
246	0xbe2ffa91	-0.17185427
247	0xbeb4fd74	-0.3534962
248	0x3f653932	0.895404
249	0xbf496994	-0.78676724
250	0x3e3a5c87	0.18199359
251	0xbfc5865f	-1.5431632
252	0xc04600db	-3.0938022
253	0x3e0cdb3f	0.13755511
254	0xbf5aaeb7	-0.85422844
255	0xbf4266e8	-0.7593827

sequential/dense_1/MatMul f4 [5, 16]
0	0x400e4050	2.2226753
1	0xc01bee18	-2.436407
2	0xc02b2643	-2.6742103
3	0xc059bf4d	-3.402301
4	0xc0c574eb	-6.170522
5	0x3eb26718	0.3484428
6	0x3e6c5ac4	0.230815
7	0xc0a574c5	-5.170504
8	0xbe0cad57	-0.13737999
9	0x3d7e7250	0.062120736
10	0xbf22d077	-0.6359934
11	0xc00a2f6e	-2.1591449
12	0x3f8c027d	1.0938259
13	0x40a71552	5.2213526
14	0x3e2bc17f	0.16773032
15	0xbe67cf2c	-0.22637624
16	0xc0b6c78a	-5.711858
17	0x402041ff	2.504028
18	0xc10773d1	-8.4657755
19	0x3f3643ba	0.7119709
20	0x40532d2b	3.2996318
21	0x3d02f2a5	0.031969685
22	0xbf44fbb4	-0.7694657
23	0xc0db7c43	-6.8589187
24	0xbfa578df	-1.2927512
25	0xbe8801a9	-0.26563767
26	0xbdac19a3	-0.08403327
27	0xc00d9583	-2.2122505
28	0x4001df30	2.0292473
29	0xc009b9d1	-2.1519663
30	0xc04243d8	-3.0353909
31	0xbf18a1b0	-0.59621716
32	0xc0933fc7	-4.6015353
33	0x3ead98cd	0.3390564
34	0x3febcf3e	1.842262
35	0xbf141001	-0.5783692
36	0x3df26757	0.11836117
37	0x3eccbf1a	0.3998955
38	0xbf37b0a4	-0.7175391
39	0x3f2c5bcc	0.6732757
40	0x3f2fba14	0.6864331
41	0xbef53519	-0.47892073
42	0x3db1694b	0.08662661
43	0x3eefed32	0.46860653
44	0xc084bbb7	-4.1479144
45	0xc04727cb	-3.1118038
46	0x3f323b41	0.69621664
47	0x3fd55d1f	1.6669043
48	0xbf05b755	-0.5223287
49	0xc135fbec	-11.374004
50	0x409b252c	4.8482876
51	0xc12eab7d	-10.916867
52	0x3fda815c	1.7070727
53	0x3d6509c2	0.05591751
54	0x3f468789	0.7755056
55	0xbf541dbe	-0.8285788
56	0x3f0d3ebb	0.55173844
57	0x3d7d2073	0.061798524
58	0xbeaa6571	-0.3328052
59	0xc0ffa2ad	-7.988608
60	0xc11bb099	-9.730615
61	0xc10b9c30	-8.725632
62	0xc0e759f8	-7.2297325
63	0xc08d1363	-4.4086165
64	0x3f6130f7	0.8796534
65	0xc0021b77	-2.0329263
66	0xc0ab01cb	-5.343969
67	0x3f9b95bf	1.2155074
68	0xc0b45216	-5.6350203
69	0x3ddc4c49	0.10756738
70	0x3c05d532	0.0081685055
71	0x40095339	2.1457045
72	0x3ddd4f69	0.10806162
73	0x3e50427f	0.20337866
74	0xbf1345ec	-0.5752857
75	0x3f834093	1.0254081
76	0xbee5a220	-0.44850254
77	0xc0b0fcc5	-5.5308557
78	0xc016e1eb	-2.357539
79	0xbf82543d	-1.0181957
